snapshots/clearview.pth (torch, 13399 bytes, 20 tensors)

depthwise1.weight f4 [3, 3, 1, 1]
000000 4a 1b 93 3e d6 df 1d be 97 96 74 be 9e 30 98 be
       0.28731757 -0.15417418 -0.2388557 -0.29724592
000010 d1 e8 09 3e d9 15 5a 3e d0 bd 94 3e 65 41 19 be
       0.13467719 0.21297397 0.29051065 -0.14966352
000020 87 05 70 be
       -0.23439609

depthwise1.bias f4 [3]
000000 48 f6 9f be 92 0f 80 3e 05 da 9a be
       -0.31242585 0.2501188 -0.3024446

point1.weight f4 [3, 3, 1, 1]
000000 48 84 5c be 41 6e 60 3e 4e 98 65 be 96 5e 83 be
       -0.21534836 0.21917059 -0.22421381 -0.256581
000010 d7 38 84 3e 8a 2f 7e be a7 2e 38 be ed ab 2e 3e
       0.25824615 -0.24822822 -0.17986546 0.17057772
000020 2a 85 39 be
       -0.18117204

point1.bias f4 [3]
000000 93 eb a4 3e 89 b6 02 3f c5 23 4f 3e
       0.3221098 0.51059777 0.20228489

depthwise2.weight f4 [3, 3, 3, 3]
000000 be 1d 80 b8 f6 08 81 b8 3f 82 7e b8 f7 dd 81 b8
       -6.1090555e-05 -6.1528684e-05 -6.067962e-05 -6.1925435e-05
000010 27 cb 82 b8 c6 fe 80 b8 d6 ee 81 b8 6e db 82 b8
       -6.236723e-05 -6.150971e-05 -6.195686e-05 -6.239755e-05
000020 a6 0e 81 b8 1a 38 05 b9 35 27 06 b9 d4 87 04 b9
       -6.153928e-05 -0.00012704768 -0.00012793842 -0.00012639101
000030 98 cd 06 b9 e6 bd 07 b9 e6 19 06 b9 69 c2 06 b9
       -0.00012855825 -0.00012945346 -0.00012788884 -0.00012851659
000040 c9 b3 07 b9 db 11 06 b9 65 78 03 b8 73 7c 04 b8
       -0.00012941578 -0.00012785888 -3.134496e-05 -3.1587155e-05
000050 2a 55 02 b8 89 97 05 b8 ee 9d 06 b8 7d 70 04 b8
       -3.107373e-05 -3.18508e-05 -3.2095173e-05 -3.1576015e-05
000060 a3 be 05 b8 e5 c3 06 b8 c8 96 04 b8 50 2f eb b5
       -3.1887215e-05 -3.213053e-05 -3.161168e-05 -1.7522634e-06
000070 b8 08 ed b5 10 68 e9 b5 e3 be ee b5 8c 9c f0 b5
       -1.7660414e-06 -1.7390139e-06 -1.7787937e-06 -1.7926955e-06
000080 fc f1 ec b5 e2 e3 ee b5 a2 bf f0 b5 ea 15 ed b5
       -1.7653797e-06 -1.7798704e-06 -1.7937166e-06 -1.7664254e-06
000090 ff 43 7d b6 29 15 7f b6 ea f6 7b b6 0e 29 80 b6
       -3.7739517e-06 -3.8010278e-06 -3.7545637e-06 -3.8194767e-06
0000a0 44 13 81 b6 06 01 7f b6 2f 23 80 b6 33 0c 81 b6
       -3.8467424e-06 -3.7998557e-06 -3.818793e-06 -3.8459198e-06
0000b0 e3 f4 7e b6 aa 10 6a b5 d3 1c 6c b5 92 a7 67 b5
       -3.7991492e-06 -8.719604e-07 -8.7958796e-07 -8.629805e-07
0000c0 0d 6c 6e b5 13 7d 70 b5 89 fa 6b b5 c2 be 6e b5
       -8.8819144e-07 -8.9588974e-07 -8.79089e-07 -8.89395e-07
0000d0 e5 cc 70 b5 f2 4a 6c b5 ff c4 76 b7 92 9a 78 b7
       -8.970513e-07 -8.802591e-07 -1.4708609e-05 -1.4817941e-05
0000e0 5d 0b 75 b7 63 46 7a b7 67 1f 7c b7 a3 86 78 b7
       -1.4605784e-05 -1.4917549e-05 -1.5027682e-05 -1.48132995e-05
0000f0 e7 69 7a b7 0d 41 7c b7 e9 a8 78 b7 0d 14 03 b8
       -1.49258185e-05 -1.5035516e-05 -1.4821279e-05 -3.1251508e-05
000100 ec fe 03 b8 6e 6d 02 b8 fd 9c 04 b8 d8 89 05 b8
       -3.147025e-05 -3.109633e-05 -3.161746e-05 -3.1838048e-05
000110 4e f4 03 b8 0e 97 04 b8 13 82 05 b8 35 ed 03 b8
       -3.146036e-05 -3.1611933e-05 -3.1830812e-05 -3.145375e-05
000120 2f a9 f9 b6 4f af fb b6 bc 59 f7 b6 ed ea fd b6
       -7.440474e-06 -7.5007915e-06 -7.37162e-06 -7.5673365e-06
000130 fd f5 ff b6 0e 94 fb b6 33 3a fe b6 80 21 00 b7
       -7.628229e-06 -7.4976188e-06 -7.576565e-06 -7.637194e-06
000140 8d e1 fb b6
       -7.5066405e-06

depthwise2.bias f4 [3]
000000 3a 55 be b9 98 25 4c b7 29 86 cc b8
       -0.00036303123 -1.21681005e-05 -9.752467e-05

point2.weight f4 [3, 3, 1, 1]
000000 2a 75 88 a6 f3 7a 84 a4 7e ac b7 a5 08 21 79 2b
       -9.468653e-16 -5.745416e-17 -3.1862325e-16 8.850841e-13
000010 97 78 53 a3 49 7a e2 a8 4e 21 35 3b 18 12 c9 38
       -1.1463869e-17 -2.5144073e-14 0.002763826 9.587797e-05
000020 17 9b 3b 3a
       0.0007156594

point2.bias f4 [3]
000000 be 52 32 2a 05 ac d4 a8 d6 56 c2 3d
       1.5838283e-13 -2.361133e-14 0.09489219

depthwise3.weight f4 [3, 6, 5, 5]
000000 94 a3 4d bd 55 08 42 bd e3 e5 3c bd 57 13 46 bd
       -0.05020483 -0.047371227 -0.046117675 -0.048358288
000010 70 e8 52 bd 9a cd 41 bd 45 92 35 bd 96 e6 2e bd
       -0.0514912 -0.047315218 -0.044328947 -0.042700373
000020 fb eb 39 bd 47 21 49 bd 4d 0f 39 bd 3d 53 2d bd
       -0.045391064 -0.049104 -0.045180608 -0.04231571
000030 10 35 28 bd 6e 7a 31 bd 3a 98 40 bd bf c2 39 bd
       -0.04106623 -0.04332965 -0.047020175 -0.04535174
000040 63 b3 2d bd 10 bf 28 bd 95 75 32 bd 7a 3a 41 bd
       -0.042407405 -0.041197836 -0.043569166 -0.04717491
000050 ef ab 3d bd fb 85 31 bd be fa 2c bd 30 79 36 bd
       -0.046306547 -0.043340664 -0.042231314 -0.044549167
000060 ed ae 44 bd ef 5b 85 bd 9d c7 72 bd b1 de 71 bd
       -0.048018385 -0.065116756 -0.059272397 -0.059050266
000070 b2 72 7f bd 41 72 87 bd 24 36 7a bd 82 f7 69 bd
       -0.06236524 -0.06613589 -0.06108679 -0.057120807
000080 57 5a 65 bd 6b 26 71 bd 2a e6 80 bd 39 d0 71 bd
       -0.055994358 -0.05887453 -0.062939 -0.059036467
000090 bb e4 5a bd 9e 36 5b bd 56 ec 63 bd 33 68 78 bd
       -0.05344079 -0.053518884 -0.05564531 -0.060646247
0000a0 b3 5a 72 bd 95 f0 62 bd 2a 09 5c bd 66 50 68 bd
       -0.05916853 -0.05540522 -0.053719677 -0.0567173
0000b0 a2 f9 7a bd d2 4b 79 bd 6e 63 69 bd d7 c7 64 bd
       -0.061273225 -0.060863324 -0.05697959 -0.055854645
0000c0 20 d0 6d bd 6a 94 7e bd f5 88 19 bd 9f d9 10 bd
       -0.05805981 -0.062153257 -0.037484128 -0.03536379
0000d0 36 a0 0d bd c4 c7 14 bd be a4 1f bd 4b 89 10 bd
       -0.034576617 -0.036323324 -0.03897547 -0.035287183
0000e0 8b 26 07 bd ad 2c 04 bd 4c 5c 0b bd f4 c7 16 bd
       -0.03299574 -0.03226917 -0.034023568 -0.036811784
0000f0 c9 19 0a bd a2 f0 00 bd 67 f9 fa bc 77 a6 04 bd
       -0.033715997 -0.031479485 -0.030636502 -0.032385316
000100 19 6b 10 bd 03 0e 0a bd 43 9c 00 bd 84 7b fb bc
       -0.035258386 -0.03370477 -0.031399023 -0.030698545
000110 49 10 05 bd 29 5c 10 bd 07 a6 0c bd 6a ba 03 bd
       -0.032486234 -0.03524414 -0.034338024 -0.0321602
000120 a2 8c 00 bd 1e c5 07 bd 84 f4 12 bd 8a 20 b0 28
       -0.031384118 -0.03314697 -0.03587772 1.9554037e-14
000130 69 3b ab 28 13 85 a8 28 48 d5 aa 28 cf 99 ae 28
       1.9010579e-14 1.8709459e-14 1.8966287e-14 1.9384584e-14
000140 6d ea ac 28 f9 03 a8 28 73 4c a5 28 13 9e a7 28
       1.9197502e-14 1.865347e-14 1.8351834e-14 1.8609278e-14
000150 7b 63 ab 28 ec c4 aa 28 16 dd a5 28 e9 24 a3 28
       1.9027956e-14 1.8959193e-14 1.841456e-14 1.8112643e-14
000160 3e 77 a5 28 80 3d a9 28 32 32 ac 28 91 4b a7 28
       1.8370393e-14 1.878944e-14 1.9117605e-14 1.8573496e-14
000170 a5 93 a4 28 38 e5 a6 28 57 ab aa 28 5c 5f ae 28
       1.8271688e-14 1.852911e-14 1.8948098e-14 1.9359236e-14
000180 0b 79 a9 28 10 c2 a6 28 ee 12 a9 28 a7 d7 ac 28
       1.8815263e-14 1.8513863e-14 1.8770979e-14 1.918936e-14
000190 d9 a8 b3 2b c4 69 a8 29 89 36 2a ab 0d c9 07 a9
       1.276558e-12 7.479046e-14 -6.0471815e-13 -3.0150405e-14
0001a0 fe 06 7e 2b 5d f0 00 2b 02 45 51 ab 2f 8d c8 ab
       9.024863e-13 4.5808306e-13 -7.4347483e-13 -1.4250041e-12
0001b0 42 16 6f ab d5 39 be 29 4e 60 c7 a9 de 93 b5 ab
       -8.4940746e-13 8.447727e-14 -8.8540815e-14 -1.2901865e-12
0001c0 78 be 0a ac 86 8c c4 ab 17 03 02 ab 12 60 93 2a
       -1.971671e-12 -1.3965641e-12 -4.6189566e-13 2.6179108e-13
0001d0 08 34 84 ab d8 09 e4 ab 9e 32 93 ab 04 fc fb a9
       -9.393606e-13 -1.6203107e-12 -1.0459027e-12 -1.1190357e-13
0001e0 50 4c 60 2b 04 7f e3 aa d6 a7 98 ab f5 99 0f ab
       7.968669e-13 -4.0411435e-13 -1.0846833e-12 -5.1017464e-13
0001f0 44 28 ee 2a 10 ff ef ba 3c d1 a0 ba 06 5a 6e ba
       4.2305233e-13 -0.0018310267 -0.0012269388 -0.0009092394
000200 1c dd 98 ba 56 91 da ba e4 a3 ba ba 37 c5 54 ba
       -0.0011662575 -0.0016675394 -0.0014239517 -0.00081165455
000210 6b 65 f7 b9 72 3f 50 ba 44 0d a4 ba b5 3c 94 ba
       -0.00047187074 -0.00079440244 -0.001251616 -0.0011309596
000220 e0 45 12 ba 12 9a 7b b9 a2 e6 06 ba 09 c7 81 ba
       -0.000557987 -0.00023994621 -0.00051460613 -0.0009901236
000230 bd f0 ad ba 71 fc 3d ba 9a 13 cf b9 44 75 34 ba
       -0.0013270598 -0.00072473945 -0.0003949672 -0.0006883929
000240 ef b5 96 ba d3 c1 ce ba fc 97 82 ba db 53 23 ba
       -0.0011498312 -0.0015774317 -0.0009963508 -0.0006230452
000250 21 13 77 ba 7d 8c b8 ba 6c 9d 55 3d 18 61 4b 3d
       -0.00094251527 -0.0014079955 0.052152082 0.049653143
000260 0c de 46 3d 3d c6 4f 3d 0c e0 5e 3d 6f ec 48 3d
       0.048551604 0.050726164 0.054412887 0.049053606
000270 9d c1 3c 3d ef 83 39 3d 9e 32 43 3d f2 d7 52 3d
       0.04608308 0.045291837 0.047655694 0.051475473
000280 c7 ff 42 3d b7 c7 35 3d e5 f8 30 3d 29 59 39 3d
       0.04760721 0.044379916 0.043206114 0.045251045
000290 ad cb 48 3d d6 b4 41 3d 5a 84 36 3d 21 f2 30 3d
       0.049022365 0.0472916 0.044559814 0.043199662
0002a0 0b ac 3b 3d c4 69 49 3d 32 e3 47 3d 94 a6 39 3d
       0.04581837 0.04917313 0.048800655 0.045324877
0002b0 f2 47 35 3d 48 cf 3e 3d 1c 6d 4e 3d 99 8d 8c 3d
       0.044258066 0.046584398 0.050397024 0.06862945
0002c0 64 a9 84 3d 17 68 80 3d d3 e4 86 3d 6f 44 8e 3d
       0.06477621 0.062698536 0.065866135 0.069466464
0002d0 10 3b 85 3d 25 52 79 3d b2 b4 6b 3d 20 5f 7d 3d
       0.06505406 0.060869355 0.05754537 0.061858296
0002e0 a0 bc 88 3d 53 a8 7f 3d 57 9d 6f 3d 55 f9 5e 3d
       0.06676602 0.062416386 0.05849966 0.054437
0002f0 03 fb 72 3d 10 0d 83 3d 23 b7 7d 3d 79 6d 70 3d
       0.059321415 0.06398976 0.06194223 0.05869815
000300 d4 89 69 3d ea 15 76 3d 55 4c 84 3d 5e fb 7c 3d
       0.05701621 0.060079493 0.06459872 0.06176316
000310 a2 47 75 3d ee 6b 6f 3d 16 e5 74 3d b8 55 86 3d
       0.059882767 0.05845254 0.059788786 0.06559318
000320 51 df 20 3d b1 fd 17 3d 12 47 14 3d c3 db 1b 3d
       0.03927547 0.037107173 0.03620059 0.038051378
000330 bb 42 27 3d e3 3b 17 3d a6 3f 0e 3d d3 9d 0a 3d
       0.040835124 0.036922347 0.03472867 0.03384192
000340 ae 08 12 3d bf 18 1e 3d 64 de 10 3d a0 12 07 3d
       0.03565281 0.03859782 0.03536834 0.032976747
000350 a4 ad 03 3d 10 6a 0b 3d 8d 7a 17 3d 69 be 10 3d
       0.03214802 0.034036696 0.036982108 0.03533784
000360 88 61 07 3d 43 af 03 3d 18 31 0b 3d ad 75 17 3d
       0.033051997 0.032149564 0.033982366 0.03697746
000370 2a 9b 13 3d f1 5f 0a 3d 73 fa 06 3d a6 6c 0e 3d
       0.036036648 0.033782903 0.03295369 0.034771584
000380 b5 f7 19 3d ff e7 99 a8 20 f3 94 a8 62 32 92 a8
       0.037589747 -1.7087025e-14 -1.653674e-14 -1.6231106e-14
000390 90 8c 94 a8 29 5f 98 a8 9d a7 96 a8 53 b1 91 a8
       -1.649226e-14 -1.6916659e-14 -1.6726036e-14 -1.6175136e-14
0003a0 77 ef 8e a8 9a 4a 91 a8 e0 1e 95 a8 b8 7a 94 a8
       -1.5869018e-14 -1.6130587e-14 -1.6555713e-14 -1.6484522e-14
0003b0 d8 83 8f a8 00 c1 8c a8 11 1d 8f a8 a9 f1 92 a8
       -1.5933367e-14 -1.5626823e-14 -1.5888795e-14 -1.631406e-14
0003c0 16 ee 95 a8 0f f7 90 a8 22 35 8e a8 78 90 90 a8
       -1.6645576e-14 -1.6094356e-14 -1.578821e-14 -1.6049865e-14
0003d0 af 64 94 a8 af 21 98 a8 25 2c 93 a8 4f 6a 90 a8
       -1.6474965e-14 -1.6889998e-14 -1.6339423e-14 -1.6033316e-14
0003e0 a3 c4 92 a8 f5 97 96 a8 09 65 8e ac 95 82 99 ab
       -1.6294534e-14 -1.6719246e-14 -4.0471e-12 -1.0907548e-12
0003f0 c7 30 24 2b 55 60 69 ab e4 40 5c ac ed a4 0e ac
       5.8332196e-13 -8.2911916e-13 -3.1299902e-12 -2.0270966e-12

depthwise3.bias f4 [3]
000000 5d 9b 17 bd 1d 98 3a 3d f6 0d fb bc
       -0.0370134 0.045555223 -0.030646306

point3.weight f4 [3, 3, 1, 1]
000000 27 c3 e2 39 f2 99 e2 b9 64 2b b3 b9 27 34 7d 3a
       0.0004325148 -0.00043220777 -0.0003417387 0.00096589554
000010 6a a3 1b bb ac bf 4b b7 e3 5f 55 be cf d7 5e 3e
       -0.0023748525 -1.214437e-05 -0.20837359 0.21762012
000020 0b 71 43 be
       -0.19086091

point3.bias f4 [3]
000000 ef cd 60 3a 3f 96 a6 3b b8 5b 1c 3e
       0.00085756084 0.0050838287 0.15269363

depthwise4.weight f4 [3, 6, 7, 7]
000000 50 21 3b a9 ff 99 3b a9 d7 10 3c a9 1a 56 3c a9
       -4.1551235e-14 -4.165591e-14 -4.1758992e-14 -4.1819067e-14
000010 0c 12 3c a9 4e a3 3b a9 c0 23 3b a9 8f 91 3b a9
       -4.176004e-14 -4.1663985e-14 -4.155335e-14 -4.1648593e-14
000020 a3 0a 3c a9 ab 81 3c a9 25 c7 3c a9 02 83 3c a9
       -4.175361e-14 -4.1856855e-14 -4.1917116e-14 -4.1858017e-14
000030 df 13 3c a9 fe 93 3b a9 54 f6 3b a9 cd 6f 3c a9
       -4.176162e-14 -4.1650704e-14 -4.1735997e-14 -4.1841357e-14
000040 18 e7 3c a9 e5 2c 3d a9 77 e8 3c a9 03 79 3c a9
       -4.1944828e-14 -4.200537e-14 -4.1946017e-14 -4.1849347e-14
000050 c2 f8 3b a9 ae 35 3c a9 58 af 3c a9 0b 27 3d a9
       -4.1738104e-14 -4.1790945e-14 -4.1896472e-14 -4.2000295e-14
000060 ec 6c 3d a9 6d 28 3d a9 a7 b8 3c a9 0e 38 3c a9
       -4.2060905e-14 -4.2001494e-14 -4.1904546e-14 -4.1793005e-14
000070 09 0c 3c a9 b4 85 3c a9 1f fd 3c a9 e0 42 3d a9
       -4.1754825e-14 -4.1860355e-14 -4.1963933e-14 -4.2024435e-14
000080 5a fe 3c a9 04 8f 3c a9 88 0e 3c a9 d6 c8 3b a9
       -4.1965e-14 -4.1868432e-14 -4.175699e-14 -4.169654e-14
000090 0b 42 3c a9 57 b9 3c a9 e0 fe 3c a9 98 ba 3c a9
       -4.180167e-14 -4.1905142e-14 -4.1965455e-14 -4.190623e-14
0000a0 68 4b 3c a9 3c cb 3b a9 f9 7e 3b a9 13 f8 3b a9
       -4.180979e-14 -4.169862e-14 -4.1632472e-14 -4.173751e-14
0000b0 04 6f 3c a9 6b b4 3c a9 40 70 3c a9 5c 01 3c a9
       -4.1840676e-14 -4.1900873e-14 -4.1841747e-14 -4.1745565e-14
0000c0 a5 81 3b a9 a3 d8 8f 27 2a 3f 92 27 fd 8a 94 27
       -4.163479e-14 3.992535e-15 4.0591623e-15 4.1228943e-15
0000d0 8c d9 95 27 9c 86 94 27 f9 5e 92 27 03 e6 8f 27
       4.1591672e-15 4.1224196e-15 4.062611e-15 3.9939852e-15
0000e0 3a 09 92 27 9b 72 94 27 13 c1 96 27 ab 10 98 27
       4.0533144e-15 4.1202507e-15 4.1842695e-15 4.2206546e-15
0000f0 92 bc 96 27 02 92 94 27 1a 16 92 27 87 03 94 27
       4.183781e-15 4.1236554e-15 4.0547103e-15 4.1082076e-15
000100 8e 6f 96 27 13 c0 98 27 92 10 9a 27 44 bb 98 27
       4.175431e-15 4.2396722e-15 4.276155e-15 4.239151e-15
000110 89 8e 96 27 e5 0f 94 27 bc 44 95 27 4f b2 97 27
       4.17879e-15 4.1095485e-15 4.143033e-15 4.210424e-15
000120 e1 03 9a 27 e5 54 9b 27 b6 fe 99 27 b4 d0 97 27
       4.274779e-15 4.3113185e-15 4.274219e-15 4.2137196e-15
000130 ce 50 95 27 d0 82 94 27 78 ef 96 27 90 40 99 27
       4.1443416e-15 4.122008e-15 4.1892996e-15 4.253603e-15
000140 02 91 9a 27 49 3b 99 27 de 0d 97 27 70 8e 94 27
       4.2900804e-15 4.2530308e-15 4.1925954e-15 4.1232683e-15
000150 d4 3d 93 27 d9 a8 95 27 72 f8 97 27 39 48 99 27
       4.086773e-15 4.1538873e-15 4.2180284e-15 4.2544335e-15
000160 4a f3 97 27 92 c7 95 27 39 4a 93 27 18 d6 91 27
       4.2174694e-15 4.1572182e-15 4.088117e-15 4.0477706e-15
000170 1c 3f 94 27 e3 8c 96 27 e4 db 97 27 36 88 96 27
       4.1146675e-15 4.1786113e-15 4.2149325e-15 4.1781044e-15
000180 b1 5e 94 27 e0 e3 91 27 cc 57 d9 39 ca 64 81 39
       4.1180917e-15 4.0492647e-15 0.0004145488 0.0002467989
000190 69 c7 ab 38 40 9b 74 b7 7a d6 a2 38 f0 25 6e 39
       8.1910584e-05 -1.457968e-05 7.764711e-05 0.00022711582
0001a0 a5 7a d1 39 c6 99 88 39 23 f0 c1 38 5f 80 98 b8
       0.00039954964 0.00026054512 9.247686e-05 -7.271836e-05
0001b0 79 9e 31 b9 03 7c a1 b8 e6 90 98 38 34 b4 80 39
       -0.00016939071 -7.700177e-05 7.274914e-05 0.00024548324
0001c0 ea 5e ff 38 0a 64 43 b8 0e 5b 5e b9 28 f3 a1 b9
       0.00012177027 -4.658479e-05 -0.0002120549 -0.00030889479
0001d0 2f db 62 b9 01 22 8b b8 d8 b3 df 38 cc a7 0f 38
       -0.00021634692 -6.63437e-05 0.00010666967 3.425013e-05
0001e0 a1 d1 0c b9 7d 40 9d b9 38 13 d0 b9 1c 80 9f b9
       -0.00013429533 -0.0002999342 -0.0003968717 -0.00030422292
0001f0 78 8b 21 b9 98 7e a0 37 ae a0 c0 38 8b 8e a0 b8
       -0.00015406113 1.9132436e-05 9.185202e-05 -7.655945e-05
000200 2e d7 7d b9 01 b4 b1 b9 8e 2c 81 b9 e3 0b ca b8
       -0.00024208121 -0.00033894184 -0.00024637993 -9.634325e-05
000210 7f dc a0 38 ce 0c 41 39 59 66 85 37 74 ad 1c b9
       7.670465e-05 0.00018410684 1.5902495e-05 -0.00014941936
000220 9a 0e 81 b9 86 31 21 b9 3a f5 82 b6 91 20 31 39
       -0.00024615676 -0.00015372605 -3.90285e-06 0.00016892167
000230 8b 67 95 39 26 59 f5 38 88 d4 49 b8 aa bf 17 b9
       0.0002849664 0.000116991156 -4.812007e-05 -0.00014471883
000240 49 e7 5b b8 3e c6 cb 38 46 6d 8d 39 71 3b 56 b7
       -5.242907e-05 9.71672e-05 0.0002697503 -1.2769234e-05
000250 41 ba 39 b7 4f ba 31 b7 e2 2a 38 b7 49 81 41 b7
       -1.1070225e-05 -1.05934005e-05 -1.0977239e-05 -1.1533798e-05
000260 dc 0a 52 b7 df 23 6b b7 c8 5a 44 b7 49 94 26 b7
       -1.2519504e-05 -1.4015443e-05 -1.1703647e-05 -9.928896e-06
000270 0f c0 1d b7 cf 01 24 b7 11 db 2d b7 dc 7e 3f b7
       -9.402646e-06 -9.775583e-06 -1.0362609e-05 -1.1414024e-05
000280 ab 0c 5a b7 5c 17 35 b7 b6 49 16 b7 64 cb 0c b7
       -1.2996762e-05 -1.07938795e-05 -8.957859e-06 -8.392006e-06
000290 bc e7 12 b7 ce 28 1d b7 41 ac 2f b7 74 61 4b b7
       -8.756233e-06 -9.36743e-06 -1.0470919e-05 -1.2122433e-05
0002a0 9c 7a 29 b7 95 1c 0a b7 ff 43 00 b7 e9 4e 06 b7
       -1.0101732e-05 -8.232096e-06 -7.645226e-06 -8.005395e-06
0002b0 3d c8 10 b7 0c c3 23 b7 bd 15 40 b7 9b 56 1e b7
       -8.6296905e-06 -9.76097e-06 -1.1449153e-05 -9.437698e-06
0002c0 3d ee fd b6 0b 46 ea b6 19 60 f6 b6 c7 a6 05 b7
       -7.567722e-06 -6.9818975e-06 -7.3425585e-06 -7.966249e-06
0002d0 98 98 18 b7 3d e1 34 b7 82 58 1a b7 0c f8 f6 b6
       -9.0954345e-06 -1.0781278e-05 -9.199723e-06 -7.3602478e-06
0002e0 3d 00 e4 b6 f9 38 f0 b6 f1 51 02 b7 1a be 14 b7
       -6.7949572e-06 -7.15919e-06 -7.767682e-06 -8.865749e-06
0002f0 db 5d 30 b7 ae da 1c b7 9b ac fd b6 99 c6 eb b6
       -1.051227e-05 -9.34924e-06 -7.5600815e-06 -7.0266656e-06
000300 92 1d f8 b6 72 cf 05 b7 76 5b 17 b7 dd e2 31 b7
       -7.3944184e-06 -7.975717e-06 -9.021596e-06 -1.0602843e-05
000310 d4 8c b1 b8 3c 62 9b b8 d3 a6 94 b8 1b 0f 99 b8
       -8.466249e-05 -7.4092735e-05 -7.0882634e-05 -7.298422e-05
000320 f1 5c a0 b8 5a 55 ad b8 05 e0 c0 b8 5c 78 a3 b8
       -7.646706e-05 -8.265181e-05 -9.197e-05 -7.794864e-05
000330 b9 57 8c b8 62 fb 84 b8 79 3f 89 b8 78 ef 90 b8
       -6.69206e-05 -6.341074e-05 -6.544492e-05 -6.9110596e-05
000340 61 bc 9e b8 1c 60 b3 b8 14 6b 97 b8 7e 06 7f b8
       -7.5691154e-05 -8.553287e-05 -7.220186e-05 -6.0802784e-05
000350 d6 4a 6f b8 7b 98 77 b8 d7 c9 83 b8 0d 3f 92 b8
       -5.7051737e-05 -5.9031398e-05 -6.2841624e-05 -6.9735666e-05
000360 6c c1 a7 b8 07 50 8e b8 f9 f4 6b b8 3a af 5b b8
       -7.999208e-05 -6.785994e-05 -5.6256515e-05 -5.237686e-05
000370 23 e0 63 b8 8b 2e 74 b8 d9 e5 88 b8 7b de 9e b8
       -5.432976e-05 -5.821748e-05 -6.527798e-05 -7.575467e-05
000380 15 1a 86 b8 8a 86 5b b8 bb 45 4b b8 e4 77 53 b8
       -6.394476e-05 -5.2338968e-05 -4.8463913e-05 -5.0417977e-05
000390 29 c0 63 b8 cf a6 80 b8 f4 96 96 b8 d0 6a 83 b8
       -5.429998e-05 -6.134586e-05 -7.1806746e-05 -6.266462e-05
0003a0 f6 ec 56 b8 40 30 47 b8 fe 77 4f b8 29 5b 5f b8
       -5.1242263e-05 -4.7490234e-05 -4.9464397e-05 -5.3252243e-05
0003b0 a3 1c 7c b8 f2 7d 93 b8 71 a9 85 b8 9f b0 5c b8
       -6.0108152e-05 -7.0329654e-05 -6.373495e-05 -5.261658e-05
0003c0 c2 c1 4d b8 c9 1e 56 b8 f5 4f 65 b8 8c 5e 80 b8
       -4.905626e-05 -5.1050247e-05 -5.467232e-05 -6.121126e-05
0003d0 54 f9 94 b8 8b c4 3b 3d 15 fd 2a 3d dc bb 1f 3d
       -7.103631e-05 0.045841735 0.041745264 0.038997516
0003e0 9d b7 1c 3d 7d 21 24 3d d8 fd 2f 3d 81 c9 40 3d
       0.038261045 0.040071 0.042966694 0.04706717
0003f0 a5 5e 2f 3d ac 23 1d 3d fa 5c 12 3d c5 d1 0e 3d
       0.04281487 0.038364097 0.0357332 0.03486802

depthwise4.bias f4 [3]
000000 77 48 f9 3b f5 7a 13 3c da 17 21 3c
       0.0076075154 0.009001483 0.009832347

point4.weight f4 [3, 3, 1, 1]
000000 7a 39 d4 36 b3 9b 91 36 b3 85 2a b7 c6 b1 45 37
       6.3247835e-06 4.3394625e-06 -1.0163919e-05 1.1783506e-05
000010 82 eb dc 35 4c 60 67 b7 ef 45 24 3e 98 e7 2e 3e
       1.6459819e-06 -1.3791094e-05 0.16042303 0.17080534
000020 53 da 39 3e
       0.1814969

point4.bias f4 [3]
000000 e5 ea 3c 35 91 c9 3e 36 f4 b2 da 3e
       7.0377274e-07 2.8429533e-06 0.42714655

depthwise5.weight f4 [3, 12, 3, 3]
000000 3d 74 44 3d b4 a2 3c 3d 70 e7 4d 3d 4c a9 36 3d
       0.047962416 0.046053603 0.050269544 0.044595048
000010 1c 2d 30 3d 2a 17 3f 3d bd 35 3f 3d df 34 31 3d
       0.04301177 0.04665295 0.04668211 0.043263312
000020 cb fd 43 3d fb 02 87 3d ea 49 86 3d e5 a3 7d 3d
       0.047849458 0.06592365 0.06557067 0.06192388
000030 3d d8 73 3d 9c 74 70 3d 6c 99 86 3d 21 6e 76 3d
       0.059532393 0.058704957 0.06572232 0.06016362
000040 6d 62 7e 3d bd 1e 80 3d 35 de 0a 3d 91 e9 06 3d
       0.062105585 0.06255863 0.03390332 0.03293759
000050 98 a5 10 3d b9 c6 01 3d 63 54 fb 3c fa 5c 09 3d
       0.035314173 0.031683657 0.030679887 0.033535935
000060 b4 d2 03 3d d5 4e 00 3d 4d 6c 09 3d 20 09 57 a8
       0.032183364 0.03132518 0.03355055 -1.1936876e-14
000070 d7 91 50 a8 e5 0d 57 a8 8c 37 51 a8 2b bd 4a a8
       -1.15779434e-14 -1.193791e-14 -1.1613875e-14 -1.1254272e-14
000080 0a 37 51 a8 d2 65 55 a8 18 e2 4e a8 bf 66 55 a8
       -1.1613765e-14 -1.1845954e-14 -1.1484323e-14 -1.1846155e-14
000090 d1 5e 3c ac 5d 8b 9b ab fd 31 3c ac 33 37 b7 ab
       -2.676904e-12 -1.1052093e-12 -2.6744156e-12 -1.3018253e-12
0000a0 82 a2 a0 2a cd 7e b1 ab 78 98 1c ac c7 3a 3c ab
       2.8534472e-13 -1.2611801e-12 -2.225357e-12 -6.6872587e-13
0000b0 d9 c0 1a ac 6e 30 e2 3a 57 09 b5 3a e7 ad f3 3a
       -2.1991768e-12 0.0017256865 0.0013811988 0.0018591256
0000c0 be 29 b0 3a 3b 6f 79 3a 90 cb c5 3a f8 5f d5 3a
       0.0013440175 0.0009515171 0.0015090574 0.0016279211
0000d0 ee 99 a7 3a ee 5c de 3a ff 60 9e b7 5f 36 ab b7
       0.0012786963 0.0016964951 -1.8880235e-05 -2.0410107e-05
0000e0 47 10 b8 b7 57 de 8c b7 fd 91 99 b7 7f cd a6 b7
       -2.1942089e-05 -1.6792836e-05 -1.8307002e-05 -1.9884434e-05
0000f0 a2 ec 70 b7 e8 3a 85 b7 da 66 92 b7 cc ea 20 b9
       -1.436021e-05 -1.5882266e-05 -1.745245e-05 -0.00015346258
000100 66 37 28 b9 85 b8 34 b9 56 eb 10 b9 38 0c 18 b9
       -0.00016042366 -0.00017234877 -0.0001382058 -0.00014500401
000110 50 d4 24 b9 0f d4 02 b9 33 ed 09 b9 62 b1 16 b9
       -0.00015719351 -0.00012476764 -0.00013153702 -0.00014371195
000120 67 4d ba 3d cd d4 c6 3d e6 0c c2 3d ed 79 ab 3d
       0.090967946 0.09708557 0.094751164 0.08372865
000130 f5 f3 a9 3d 5c 94 c4 3d 07 8a c0 3d b5 bc b5 3d
       0.08298484 0.0959861 0.094013266 0.08873884
000140 fa 63 bd 3d a1 e4 f3 b2 73 82 f0 b2 6d b5 fe b2
       0.09247585 -2.8392892e-08 -2.7998999e-08 -2.9651995e-08
000150 b2 55 ce b2 7a 63 ca b2 a2 36 d9 b2 5c 8e a1 b2
       -2.4020526e-08 -2.3561132e-08 -2.5286969e-08 -1.8807604e-08
000160 1d a8 9d b2 c5 8b ac b2 f2 4c dd b3 f5 2f da b3
       -1.8353655e-08 -2.0086995e-08 -1.0305111e-07 -1.01601394e-07
000170 09 fe ed b3 d7 09 ae b3 48 f5 a9 b3 c9 47 be b3
       -1.1082381e-07 -8.104296e-08 -7.914292e-08 -8.860622e-08
000180 b4 9b 6e b3 45 b8 66 b3 66 c6 87 b3 40 c0 d3 3d
       -5.5555304e-08 -5.371864e-08 -6.322516e-08 0.10339403
000190 74 19 c8 3d 61 53 b6 3d dc 5a c2 3d 62 eb df 3d
       0.0977048 0.08902622 0.09489986 0.109335676
0001a0 cd 64 ce 3d 11 6d cc 3d 08 9d a4 3d ff 9b db 3d
       0.1007782 0.0998174 0.08037764 0.10723113
0001b0 a1 20 3b bd 9b 73 2f bd 27 25 3e bd 93 e3 2d bd
       -0.045685414 -0.04283486 -0.04642215 -0.04245336
0001c0 8a f1 26 bd f2 fe 35 bd b3 5a 30 bd ca ff 27 bd
       -0.040757693 -0.044432588 -0.043055248 -0.041015424
0001d0 4e d6 31 bd 21 28 7a bd f5 69 64 bd c7 09 7e bd
       -0.043417268 -0.061073426 -0.05576511 -0.062021043
0001e0 1b 50 72 bd 31 f8 5b bd 03 2b 78 bd 0f 7a 69 bd
       -0.059158426 -0.05370349 -0.060587894 -0.05700117
0001f0 c3 52 6a bd 84 4b 7a bd 9a 89 03 bd 51 0a ff bc
       -0.057207834 -0.061107174 -0.03211365 -0.031132849
000200 f1 f9 09 bd 9b 0e f6 bc b0 54 f0 bc c4 6b 01 bd
       -0.03368563 -0.030036261 -0.029337257 -0.031596914
000210 b8 b3 f8 bc c7 01 ef bc 06 b2 02 bd a1 01 79 28
       -0.030359134 -0.029175652 -0.031908058 1.382263e-14
000220 62 a1 72 28 b3 05 79 28 06 46 73 28 34 e2 6c 28
       1.3468693e-14 1.38235125e-14 1.3504394e-14 1.3149682e-14
000230 01 49 73 28 7c 5e 77 28 8e fa 70 28 db 5f 77 28
       1.350504e-14 1.3731742e-14 1.3377007e-14 1.373204e-14
000240 08 bb 07 2b 5f 4d 86 a9 bb 0d 06 2b c1 22 c7 a6
       4.822119e-13 -5.964217e-14 4.762542e-13 -1.3817819e-15
000250 59 01 1a ab c1 59 a6 a8 33 6a b8 2a 96 ec 6f aa
       -5.471366e-13 -1.8468627e-14 3.2758656e-13 -2.1309546e-13
000260 d6 08 b0 2a 31 bb b0 ba e7 61 8a ba 68 e9 bd ba
       3.1270012e-13 -0.0013483522 -0.0010557742 -0.0014489116
000270 43 d0 89 ba 58 1a 1d ba 44 94 8e ba c2 02 ac ba
       -0.0010514337 -0.0005993 -0.0010877927 -0.001312338
000280 bf 05 67 ba 4c 3a b3 ba 4b 0f 9b 37 c3 20 a7 37
       -0.0008812807 -0.001367399 1.8484561e-05 1.9923207e-05
000290 01 0c b3 37 b9 b3 8a 37 b7 ac 96 37 78 f5 a2 37
       2.1344053e-05 1.6534572e-05 1.796182e-05 1.942621e-05
0002a0 83 5d 6f 37 b9 b0 83 37 81 ef 8f 37 cc 5e 17 39
       1.42672825e-05 1.569871e-05 1.7158456e-05 0.00014435797
0002b0 be 73 1e 39 ef ad 29 39 fb c4 08 39 4e ba 0f 39
       0.00015111172 0.00016181891 0.00013043352 0.00013706947
0002c0 f4 55 1b 39 7c f1 f6 38 45 7a 02 39 6a fb 0d 39
       0.00014813972 0.00011775174 0.00012443315 0.00013540467
0002d0 52 92 b4 bd fd 25 b0 bd 7e 6d ae bd 58 84 b0 bd
       -0.08816971 -0.08600996 -0.08516978 -0.086189926
0002e0 19 05 a5 bd 96 d6 af bd 41 8c ae bd 67 81 b2 bd
       -0.08057613 -0.08585851 -0.08522845 -0.08716088
0002f0 01 fe a3 bd 68 39 ec 32 e7 2b ea 32 16 c3 f5 32
       -0.08007432 2.7500121e-08 2.726115e-08 2.8610469e-08
000300 d2 da cc 32 b4 90 ca 32 c8 6a d6 32 47 e8 a6 32
       2.3848234e-08 2.3581698e-08 2.4961437e-08 1.9430571e-08
000310 4f 5c a4 32 de 64 b0 32 c3 3f cb 33 4a 88 ca 33
       1.913409e-08 2.0534966e-08 9.464522e-08 9.431149e-08
000320 74 f8 d8 33 be 39 a6 33 d0 ff a4 33 71 de b3 33
       1.0103477e-07 7.7404806e-08 7.683377e-08 8.375799e-08
000330 3f b8 6f 33 8e fc 6d 33 ba 90 85 33 f2 5a d0 bd
       5.5814095e-08 5.541056e-08 6.219621e-08 -0.101735964
000340 38 43 b5 bd 61 33 b3 bd b1 16 c4 bd 11 2f b2 bd
       -0.088507116 -0.08750034 -0.095746405 -0.087003835
000350 fe 8f b2 bd 22 44 b2 bd b4 20 c7 bd 08 30 91 bd
       -0.087188706 -0.087044016 -0.097230345 -0.07089239
000360 d2 11 39 bd cc 82 32 bd f7 50 39 bd 1c dc 2d bd
       -0.04518301 -0.04358177 -0.04524323 -0.04244624
000370 b8 72 21 bd 5c 73 31 bd bc 59 2f bd 3e 22 27 bd
       -0.039416045 -0.043322906 -0.042810187 -0.04080414
000380 cf a6 32 bd d7 0f 75 bd 4c 3a 62 bd 8d f4 79 bd
       -0.043616112 -0.05982956 -0.055231377 -0.061024237
000390 6d fb 67 bd 84 48 59 bd 2a c0 7b bd 37 0d 64 bd
       -0.056636263 -0.053047672 -0.06146256 -0.055676665
0003a0 73 9a 6b bd 6f 31 67 bd 61 5f 02 bd 8c 6a fc bc
       -0.05752034 -0.056443628 -0.03182924 -0.030812524
0003b0 f9 8e 08 bd 13 26 f4 bc 04 91 eb bc be f6 fe bc
       -0.033339474 -0.029803311 -0.028755672 -0.031123515
0003c0 73 5a f4 bc 92 3d ec bc 1d d6 00 bd 8a e4 6c 28
       -0.029828286 -0.028837953 -0.031454194 1.3150188e-14
0003d0 4f 81 66 28 10 f9 6c 28 cf 35 67 28 bd d6 60 28
       1.2795604e-14 1.31546385e-14 1.2834744e-14 1.2481062e-14
0003e0 16 4a 67 28 0d 3b 6b 28 af dc 64 28 06 4e 6b 28
       1.2839141e-14 1.3057925e-14 1.2704396e-14 1.3062039e-14
0003f0 e2 2a a4 2b 24 e7 0a 2b d7 6c a5 2b 50 49 1f 2b
       1.1664803e-12 4.934822e-13 1.1754164e-12 5.658989e-13

depthwise5.bias f4 [3]
000000 85 1a 00 3d 02 b3 4d bd fa 18 49 bd
       0.03127529 -0.050219543 -0.049096085

point5.weight f4 [3, 3, 1, 1]
000000 e6 d7 5a 3e 71 25 4a be 1f 48 2c be d5 10 13 3e
       0.21371421 -0.19740845 -0.16824387 0.1436189
000010 2e 1f 23 be f3 77 1b be 43 b2 13 3e 07 23 f3 bd
       -0.15929863 -0.15182476 0.1442347 -0.11871915
000020 55 18 20 be
       -0.15634282

point5.bias f4 [3]
000000 49 89 4a be 6d 2a 29 3e 81 4d 8a 3e
       -0.19778933 0.1652009 0.27012256
